run10_2000.pth (torch, 541316 bytes, 77 tensors)

conv_init.weight f4 [32, 3, 3, 3]
00000000: f4f3 99be 248b abbd aaaf 15be fe50 0abe
00000010: 39c8 f9bd ee2d 01be 9563 31be 4f6b 0abe
00000020: 6e63 92be 38b5 8c3d 53d3 df3d c417 9a3d
00000030: 54c3 ea3d fe88 aa3d 81ed 893c b50f d03d
00000040: 846d b73d d4cf cb3d 2a14 2f3d 4186 ed3d
00000050: 127d a23d 7fc5 063e cb6f 89bd b42f 213d
00000060: 2fde be3d 411c dc3d d3e6 403d 79ab 9fbd
00000070: 0ba5 5abe bbb0 36be d684 e2bd 1b8e 91bd
00000080: a6a9 f6bd 06b1 38be fb26 393d 9ab4 5bbd
00000090: 0e1d 07be 500a fa3d 8b5b 35be edd0 d6bd
000000a0: e53b a43e 195c f5bd 70a3 2abe 909a 233e
000000b0: 8ede a3bd 0271 03be ad5b 39be 35e1 29be
000000c0: a5aa debd 9cfe 66be 1b10 02be d9cf 25be
000000d0: 3463 9c3d 28c1 77bd 7289 12be 1b54 1abd
000000e0: 2379 1e3d 205e ba3d 4615 043f c6b0 ea3d
000000f0: b909 263e 7199 d43d c0f0 423c f56e 12be
00000100: 5be6 b1bd 416e 8cbd de40 cfbd 20dc 423c
00000110: 5d84 1abe 8ee0 d63d 5eb7 ef3c e497 29be
00000120: 8298 14be a80e 5bbd f949 e83b 8e2b f8bd
00000130: 95fc acbe 68db d0bd db21 063e c4a4 cb3d
00000140: fcd5 3abd cb6d 8dbe 9ff2 0cbe ebd5 733c
00000150: 8dcb 813e 2835 02be 3578 883d 0626 9fbd
00000160: f0a7 76bd 0ee1 53be e1f8 c23e 35d6 cb3d
00000170: 4b82 d53c db94 46be b3e1 06be 8b64 a63d
00000180: 26f3 00bd c75e 40bd fc39 1bbe 0264 47be
00000190: ef73 fcbd f9ed f43c 5de2 72be 798c 2cbe
000001a0: 3cb5 983d c96f 51bd 57bf 7bbd 0add 46be
000001b0: 672a afbd 7de3 953d 6082 6bbd c448 32be
000001c0: 8428 423d 988d 8fbe 182a da3d 7109 333d
000001d0: 861a 5fbd 848d b6bd 5fa9 983d 242a 6fbd
000001e0: 5d99 dfbb 99da bd3d 5b37 ce3e c379 46bd
000001f0: af02 e43c 90c4 73bd 9df5 d4bd c512 a83d
00000200: bff2 8cbd 9388 49be e24e 03bc 8532 89be
00000210: 46b3 14bd f086 273d 23c0 3cbd e186 a6ba
00000220: c309 493e 92f6 263d fc6a 783e 1496 a53e
00000230: ef02 2d3e f0cd 783d 1d5f 073e b1f6 aabd
00000240: 1956 0f3e 9b6e dd3b f84f f33d 37b2 4dbc
00000250: 20e0 03bf c5dd 3fbe 921f fb3d 94f9 1bbb
00000260: 13e5 043c 62c6 933c ca48 553d 8bcf 6b3d
00000270: 63cd dd3d decd 8c3d af03 cabd 1fce 8c3d
00000280: 04e6 183d 55d5 9bbd 57b2 d63d bc33 a43e
00000290: 9d16 25be 233b c93c 2dd9 ce3d ad36 36be
000002a0: 64ad e23d 72c3 3d3e 39f5 7abd 7d8e 4abe
000002b0: 158e 11be c169 d13c 1d73 0c3d cc7e 933d
000002c0: c867 21be 9c5b f53d 8ca4 3d3e eb6d c8bd
000002d0: 99fd 34be 6d1a 14be 4cdd 0dbe 5cf8 fb3c
000002e0: e2f4 ab3d ce48 2cbe 4029 e33d fa3b 3d3e
000002f0: c4a5 c6bd 4fa1 3b3d 0525 c53d 2932 c93d
00000300: 7a1b a1bd 5da8 4e3e de5c 53bd ac69 abbd
00000310: fa1f 923d b15a 5bbe 5ea5 d13c d8a5 36bd
00000320: 9530 653d 3e3d e9bd 7d60 bf3d 5e0d d0bd
00000330: 597a c2bd 408b 8bbe a568 cd3e a5f7 893c
00000340: 17ba 003c 9455 693d f069 b5bd c7d5 2dbe
00000350: 6ea3 8fbd 3013 ccbd fd98 8fbe 58f0 80be
00000360: 76bb c23d 0bd1 d83d 6463 823e 631a b83c
00000370: 951c a1bd 04a5 78be be43 a0bb 708f 4ebe
00000380: 5940 bcbd dc4f 80be 764b 8d3d cbe3 94be
00000390: 496c ff3d 46ec 843d ad32 a93c 2916 9dbb
000003a0: fe1f cebd a3a3 b9bd 4f6d 4cbe b03c 56be
000003b0: 76a4 8ebe 3bdf 333d 56ff 44bc 9bbc 44be
000003c0: 9fe2 76bc 8bdb 23be 9a83 b5bd 6ab5 973d
000003d0: 09cb 6ebc 5ab7 99be 0076 413e 7394 06bd
000003e0: e763 823e 58bd 5f3c 5907 17be e022 163d
000003f0: cf16 da3d 9fa9 af3c d690 693e 189b a7bd
-0.30068934 -0.08376148 -0.14617792 -0.13507459 -0.121963926 -0.12615177 -0.17323144 -0.13517497
-0.28591484 0.06870502 0.10928979 0.07524064 0.11463037 0.083269104 0.016836884 0.10159246
0.08956435 0.099517494 0.04274384 0.115978725 0.079340115 0.13161276 -0.06710776 0.039352134
0.09319722 0.107475765 0.04709513 -0.07796378 -0.21352021 -0.17840855 -0.11060493 -0.071071826
-0.120440766 -0.18036279 0.04520319 -0.053639032 -0.13194677 0.12208998 -0.17710702 -0.10489068
0.32076946 -0.11980457 -0.16663909 0.1597693 -0.08001433 -0.12836078 -0.18101378 -0.16589816
-0.108723916 -0.22558063 -0.12701456 -0.16192569 0.07636109 -0.060486943 -0.14310244 -0.037677865
0.038689744 0.09099984 0.5159496 0.11459498 0.16214646 0.10380829 0.01189822 -0.14300139
-0.08686515 -0.06856967 -0.10119794 0.011893302 -0.15089555 0.10492049 0.029262241 -0.16561848
-0.14511302 -0.053480774 0.0070888964 -0.121176824 -0.33786455 -0.101980984 0.13098852 0.09943536
-0.045614228 -0.27622828 -0.13764428 0.014882545 0.2535061 -0.1271559 0.06663553 -0.07770924
-0.06021875 -0.2069132 0.38080505 0.09952966 0.026063105 -0.19392721 -0.13172035 0.08124646
-0.031481884 -0.046965387 -0.15158838 -0.19471744 -0.123268 0.02989863 -0.23719163 -0.16850461
0.07456443 -0.051131997 -0.061461773 -0.19420257 -0.085530095 0.073187806 -0.057497382 -0.1741057
0.04740192 -0.28037715 0.1065256 0.043710176 -0.054468654 -0.08913711 0.0745418 -0.058389798
-0.0068237022 0.0927021 0.40276608 -0.048455965 0.02783331 -0.05951363 -0.103984095 0.08206705
-0.06882238 -0.19681005 -0.008014413 -0.26796356 -0.03630378 0.04090017 -0.046081673 -0.0012704992
0.1963263 0.04076249 0.24259561 0.32341063 0.1689565 0.060743272 0.13219877 -0.08347834
0.13997687 0.00675757 0.11880487 -0.012554697 -0.5151386 -0.18736942 0.12261881 -0.0023799883
0.008111256 0.018038932 0.05207137 0.057570975 0.1083019 0.068752035 -0.09863984 0.06875252
0.037328735 -0.07609049 0.104832344 0.3207072 -0.16121908 0.024564331 0.10100017 -0.17794295
0.11068228 0.18531588 -0.06126902 -0.19780917 -0.14214356 0.025563123 0.034289468 0.07201919
-0.15762246 0.11980364 0.18519801 -0.0978659 -0.17674865 -0.14463206 -0.1385395 0.030758075
0.08396317 -0.16824648 0.11091852 0.1847991 -0.09699586 0.045808133 0.096262015 0.098240204
-0.07866569 0.20181413 -0.051602237 -0.08369765 0.07135005 -0.21421315 0.025591549 -0.044591755
0.055954535 -0.11388634 0.093445756 -0.101587996 -0.09495992 -0.27254677 0.401189 0.016841719
0.007856867 0.05696638 -0.088580966 -0.16976081 -0.070135936 -0.09964597 -0.28046408 -0.25183368
0.095084116 0.10586747 0.25466454 0.02247352 -0.0786678 -0.24281698 -0.004890888 -0.20171905
-0.09191961 -0.25060928 0.06899159 -0.29080042 0.12471826 0.06490378 0.020654047 -0.0047939015
-0.10064696 -0.09064414 -0.19963573 -0.20921588 -0.2785985 0.04391406 -0.012023767 -0.19212572
-0.015068679 -0.16001718 -0.08862992 0.07407649 -0.014574775 -0.300227 0.1889267 -0.032856416
0.25466844 0.013655983 -0.14748897 0.036654353 0.10648882 0.021443186 0.22809157 -0.08183879

conv_init.bias f4 [32]
00000000: df62 d3bd ebb3 063e c13a 043c 4977 2a3e
00000010: 094a b8bd 97b3 6f3e a760 aa3d dce5 713e
00000020: 73e8 113b 3545 e43c f6f0 7f3e b4b9 363e
00000030: 2944 11be a10e 3a3d d396 eebd e86d 89bd
00000040: 3c96 983d 1b2d 2c3d 0510 09be 59a7 373e
00000050: 6ef8 13bd 912b 5bbb b471 ad3c 2f81 81be
00000060: 3aff 4ebd 6a5b 433d e77a 4a3d 20c5 243e
00000070: e591 383e 98c7 bd3d 8a47 babd 53ee 083e
-0.103215925 0.13154571 0.008070649 0.16647066 -0.08998496 0.23408352 0.08319216 0.2362284
0.0022263795 0.027865032 0.24994263 0.17844278 -0.14186157 0.045424107 -0.11649861 -0.06710416
0.0745053 0.042035203 -0.13385017 0.17934932 -0.036125593 -0.0033442716 0.021172382 -0.25293872
-0.05053637 0.0476946 0.049433615 0.16090822 0.18024404 0.09266585 -0.09095676 0.13372163

bn_init.weight f4 [32]
00000000: bef5 463f 03eb 7b3f 5d3d 493f 5778 113f
00000010: 29ac 453f 509a 433f e134 2a3f ad98 253f
00000020: 09d7 f83e 965a 3f3f 4cd0 623f fb57 0c3f
00000030: 6cf0 343f c433 523f 6d23 353f 1f5b 3f3f
00000040: dfd3 193f c2d6 133f e72f 203f 295a 423f
00000050: d091 253f a67c 5c3f 03fa b63e 4676 073f
00000060: 5616 593f 4da6 263f 6816 753f f289 343f
00000070: 8b59 3b3f dc62 573f 0a43 4a3f 5b14 7c3f
0.7771872 0.98405474 0.7860926 0.5682425 0.7721582 0.7640734 0.66486937 0.6468609
0.4860156 0.747476 0.88599086 0.5482175 0.70679355 0.8211024 0.7075718 0.74748415
0.60088915 0.5774957 0.62573093 0.75918823 0.6467562 0.861277 0.3573762 0.52914846
0.84799707 0.65097505 0.95737314 0.7052299 0.73183507 0.8413522 0.79008543 0.9846856

bn_init.bias f4 [32]
00000000: 2976 4bbe 0fbf 943e 4946 1b3e a2fa 8a3e
00000010: 179a 533e 2e75 4bbc c18f fd3d 5e7d 5a3d
00000020: aa6f 703d 755e 8f3e 6660 02bc 10a0 ae3c
00000030: 11c8 a23e 2b32 ca3e 663a 9b3e bc2a 393d
00000040: d4eb c53d af2c 623e e339 283e 4032 113e
00000050: 35e1 c13e 1b71 c73e 343a 22be feb8 31be
00000060: f2bb b8be 58fa 11bd 3823 ebbc bb71 fe3d
00000070: 791f e8bd 7944 d03e 2ecc 813e 1c4c 853e
-0.19869293 0.29052016 0.1516353 0.27144343 0.2066425 -0.0124180745 0.123809345 0.053342216
0.05870024 0.28001752 -0.0079575535 0.021316558 0.31793264 0.394914 0.30317992 0.04520677
0.09664121 0.22087358 0.16428332 0.14179325 0.37867132 0.3895348 -0.15842515 -0.17355725
-0.3608089 -0.035639137 -0.028703317 0.12424036 -0.11334128 0.4067724 0.2535109 0.2603463

bn_init.running_mean f4 [32]
00000000: 2c24 a83e 7567 4ebf fc2b efbe 47fd 1cbf
00000010: 94a4 13bf ce95 ef3e f41f 0ebe 9d0b f8be
00000020: 5e2f 6abf d1a5 17bf d8b4 d9bd a4d8 0d3f
00000030: 3e15 343e 1f4d 263e c1d0 00bf 8260 893f
00000040: 2366 1c3f c289 01bf 0056 90be 55e8 18bf
00000050: 12f7 5fbf edf0 f7be 6e70 053f 1f50 a43d
00000060: 8359 81bf 07af 54bf d35f ec3c f287 a4bd
00000070: 9d13 863f fdc4 f0be 8fba 24bf 004d a33d
0.32840097 -0.8062661 -0.46713245 -0.6132397 -0.57673 0.4679398 -0.13879377 -0.4844636
-0.91478527 -0.5923739 -0.10630196 0.5540869 0.17586228 0.16240357 -0.50318533 1.0732577
0.6109335 -0.50600827 -0.28190613 -0.5972951 -0.87486374 -0.48426 0.5212468 0.080230944
-1.0105442 -0.8307957 0.028854286 -0.08033742 1.0474735 -0.4702529 -0.64347166 0.07973671

bn_init.running_var f4 [32]
00000000: a133 533d 50f8 393d 7013 5a3d ebbc 713d
00000010: d9e6 2d3d 510b f13c eaca 293d d2b7 a23d
00000020: 74c1 a43d e285 983d a7bb 8d3d 4916 cc3c
00000030: 4e7f 2d3d 0397 393d 7458 883d 7285 a13e
00000040: 14db f13c 119e 323d 718c 3f3d d37a 923d
00000050: 53c8 b63d d137 323d c636 c23d 393b 323d
00000060: 0e3f 7b3d d478 793d d39b db3c b8a4 723d
00000070: cf22 0a3e 78c7 a33d a3c5 2f3d 4995 8e3d
0.05156291 0.045402825 0.053241193 0.059018057 0.04245648 0.029424341 0.04145328 0.07945217
0.08044711 0.07447411 0.069205575 0.02491297 0.042357735 0.04531003 0.06657496 0.31547123
0.02952341 0.043607775 0.046764795 0.07152333 0.089249276 0.043510262 0.094831035 0.04351351
0.06133943 0.060906246 0.026807701 0.05923912 0.13489841 0.0799703 0.04291309 0.06962068

res_blocks.0.conv1.weight f4 [32, 32, 3, 3]
00000000: 1aae b8bd 985c cabe fb02 03be 674d 82bd
00000010: 04cc 7cbe 5cc8 e8bc 0ef8 80bd 88cb 35be
00000020: 16a1 0bbe 318b 1c3c e54b 91be 3b13 07bb
00000030: dd1a ccbb 3d7e 10bd 8621 b9bd c63c a83c
00000040: ea87 67be 2754 b73d 434b 993b 0194 c33c
00000050: f578 abbd 852b a7bc 70da 703c 2ed7 84bd
00000060: b551 2e3e f85a fa3d 7a07 963c 8db4 023e
00000070: d669 a0bd ec0d 80be f9f4 b9bc 9710 163d
00000080: 2c10 ff39 ae94 81bc 21c9 abbc 3806 21be
00000090: 9909 8a3d 784b e63d 7de6 de3c 929f 0cbd
000000a0: 31d6 183e ddaf 57bd 4f0b 1f3d 1431 173e
000000b0: 8345 203c 8d35 8fbd e9f7 043e 4774 0abe
000000c0: 2114 43bd 60ab 923d fe09 8cbd b111 9ebd
000000d0: 0f74 d73d 6228 04be dd6b 2ebe 3668 363d
000000e0: afc1 173d bfbd 2cbd 5c85 a1bc d5ae 293d
000000f0: 7275 c63c 865d 993d 2c22 723d e93f 3cbc
00000100: 837e e53d 3ce8 bb3d ed26 e8bd ca1a fcb8
00000110: 155d 2dbd 82d6 cabe fe3f 003e 8a49 773d
00000120: 732a 3f3c 3246 f4bc 7c77 a43c ec8e a73d
00000130: b32b a23d f562 81bc e7d3 8fbd 679b e2bd
00000140: 61be 9bbd 8283 18be 2c02 d0bc d90e 953d
00000150: 2aa3 d9bc 68d7 e23c ccf3 43bc 189e 1cbb
00000160: de6a 4bbe 84f3 8f3d 218d 31be 9657 60bd
00000170: 6718 dfbc 1713 33bc c67e 8ebd 29ff 1bbd
00000180: cb07 4bbe 1329 903d edea 823d d92e 513d
00000190: ee6b 023d cc33 b0bc 7e5e 183c b625 323d
000001a0: 6075 4dbd d1fd eb3d 5930 8a3d abf0 373e
000001b0: 3c34 37bd d407 d8bd 8757 0b3d 4859 41bd
000001c0: e7d1 9f3c 9537 c23c 3a94 37bd 6dc4 993d
000001d0: b1b2 893c c420 a1bd f26c a1be d437 86bd
000001e0: 80b1 1fbe db9c 0cbe 134f b4bd abef 7bba
000001f0: 6c44 c4be a731 e8bd fe9b 8f3d e810 e33d
00000200: e0c8 d83d b73d 78bd bc1d 673d 19a9 903d
00000210: c9c5 b8bc a4aa 88be 387f 92be cb58 213e
00000220: 6e45 cbbd bc11 c33d a685 dc3a a0c6 91bd
00000230: 3fdb 1f3d 2706 aa3d 9949 8abd d42f 143e
00000240: 1365 7cbd 89a6 19be 03a6 733d 9ad7 b939
00000250: 1962 0abe 0c2a cc3c 8a05 0a3c 5ed4 02be
00000260: 22aa 7d3d 7c94 08be 91d3 263b 5329 ccbd
00000270: ff2d 593d 3508 c8bc c7f1 c7bd 6ff1 703c
00000280: 7dee 123e cd77 3e3d b703 4d3d ac72 5e3d
00000290: 9502 6cbd 8fb5 1fbd 2011 693d dff8 b1bc
000002a0: 6313 2e3b d007 09be bfd1 b23b b407 0b3c
000002b0: 6d38 a8bb 2826 69be 4a0f 90bd 1afa c43d
000002c0: e277 87bb a65f 2fbd 02a9 f33d 38ac a3bc
000002d0: 7b64 5cbe 24f1 bfbc 3853 08be c3ef 693d
000002e0: 37b8 343c de96 cb3c 486b 743d e7c4 223e
000002f0: aa70 0ebd 7785 dc3c 3872 f23d cc74 f33c
00000300: 0c32 393d 03bb ab3c 11b3 383d bdfc c93d
00000310: 6d42 1b3e f0cf c73d c9d3 093e 6dab 063d
00000320: 2c0f d3bd dd88 f3bc 6b6e 223e 22cc 503e
00000330: 9c8f 783c 54bd 713d 33ff 3abe a40f 3e3c
00000340: 83c2 6ebc 8f44 37bc d84f a6bc 3fde 033d
00000350: 2afe d93c f5e9 9abb 5722 89bd 1bd4 083c
00000360: 5329 4f3c 5cb9 de3d c083 6e3c 1c40 04bd
00000370: 3364 803c 8cd6 7fbd 61dc 393d 9f04 3f3e
00000380: 9cf3 2ebc 2ef1 e53c 48ff e63d 2127 b43c
00000390: 4bd2 8b3c 7a15 393e 884f d73d 7b24 6cbd
000003a0: 5f69 9c3b 6705 35be df51 26ba b9da 1c3c
000003b0: 60d1 47bb 25b4 4f3b 6d9b a6bd 7343 8f3d
000003c0: ded2 e13c 5f7d 543d ad69 48bb ef1f c2bc
000003d0: baaf 96bd 776e da3c cf41 babd 6d6b ae3d
000003e0: 00f4 57bd 9e0d 76bd d128 c43b 6636 063d
000003f0: 02ef cc3d 3736 343d 6da4 c3bd 1709 813d
-0.09017582 -0.39523768 -0.12794106 -0.063624196 -0.24687201 -0.028415851 -0.06297313 -0.17753422
-0.13635668 0.00955467 -0.28378215 -0.0020610827 -0.0062287883 -0.03527664 -0.09039597 0.020536792
-0.22610441 0.08951598 0.0046781613 0.023874285 -0.0837268 -0.020406494 0.014700517 -0.06486355
0.17023356 0.12224382 0.018314112 0.12764187 -0.078326866 -0.25010622 -0.02269982 0.036636915
0.0004864944 -0.015817966 -0.02096993 -0.15725029 0.06740112 0.11244863 0.027209515 -0.034331866
0.14925458 -0.05265795 0.038829144 0.14764816 0.009782198 -0.06992636 0.12985195 -0.13520919
-0.04762662 0.071615934 -0.06837843 -0.07718218 0.10520183 -0.1290603 -0.17033334 0.044532977
0.037049945 -0.042173143 -0.019716911 0.0414265 0.024225924 0.07488541 0.05911462 -0.011489847
0.11205771 0.091751546 -0.113355495 -0.00012021286 -0.042325098 -0.3961678 0.12524411 0.060372867
0.0116678355 -0.029818628 0.020076506 0.08181557 0.07918491 -0.015794257 -0.07022839 -0.11064797
-0.07604671 -0.14893916 -0.02539166 0.072782226 -0.02656706 0.027690604 -0.011959981 -0.0023897942
-0.19864985 0.07028869 -0.17338993 -0.05477103 -0.027233316 -0.010929844 -0.06957774 -0.038085137
-0.19827192 0.07039084 0.06392465 0.051070068 0.03184121 -0.021509074 0.009299872 0.043492995
-0.050160766 0.11523021 0.06747503 0.17962901 -0.04472755 -0.10548368 0.03401902 -0.047204286
0.019509269 0.023708144 -0.044819094 0.07508168 0.01680884 -0.07867578 -0.3152843 -0.06553617
-0.15595055 -0.1373171 -0.08804145 -0.00096106034 -0.38333452 -0.113375954 0.07012175 0.11087209
0.10585189 -0.06060573 0.05642484 0.07063503 -0.022555249 -0.26692688 -0.28612685 0.15756528
-0.09925352 0.09524867 0.0016824498 -0.07117963 0.03902745 0.08301955 -0.06752319 0.1447137
-0.06161983 -0.15004934 0.059484493 0.00035446585 -0.13513984 0.024922393 0.008424172 -0.12776324
0.06192983 -0.13337892 0.0025455693 -0.099688195 0.05302238 -0.024417976 -0.09762912 0.014706
0.14348789 0.04650097 0.05005237 0.05430858 -0.05761965 -0.038991507 0.056901097 -0.021725116
0.0026561848 -0.13381886 0.0054571326 0.008485723 -0.0051336796 -0.22768462 -0.07034166 0.096180156
-0.004134164 -0.042815827 0.1189747 -0.019979581 -0.21522705 -0.023430414 -0.13312995 0.05711342
0.011030248 0.024852213 0.059672624 0.15895425 -0.034775414 0.02691911 0.11838192 0.029718779
0.045213744 0.020963198 0.045092646 0.09862659 0.15162058 0.09756458 0.13459696 0.032878328
-0.10305628 -0.029728347 0.15862434 0.2039037 0.015170958 0.059018448 -0.18261413 0.011600409
-0.014572742 -0.011185779 -0.020301744 0.032194372 0.026610453 -0.004727597 -0.06696003 0.008351351
0.01264413 0.10875198 0.014557779 -0.032287702 0.015672779 -0.062460467 0.045376185 0.18654107
-0.010678198 0.028069105 0.1127916 0.021991314 0.017068049 0.18074599 0.10513216 -0.057651978
0.0047733034 -0.17677842 -0.0006344597 0.009573632 -0.0030489787 0.0031693068 -0.08135114 0.06995287
0.02756637 0.051877376 -0.0030580566 -0.023696868 -0.07357736 0.026664002 -0.09094583 0.085165836
-0.05272293 -0.06007158 0.005986311 0.032766722 0.100065246 0.043997016 -0.09552846 0.06300562

res_blocks.0.conv1.bias f4 [32]
00000000: 3ed0 a03c eb7e 64bd 6bec d6bc 9172 b43a
00000010: 5f11 573d 25b7 3fbd d2c7 32bd 484e 1abd
00000020: 1de2 2bbd c74a 80bd e159 5d3d e6bc 823c
00000030: b6f0 23bd 67e8 3abc 499b 9ebd eb99 25bd
00000040: 3b31 c13b 84af 0cbb 293f c0bc 4081 f0bb
00000050: 8df8 87bd cf24 32bd 289b b7bc 7206 b13d
00000060: 58f0 593d d148 35bc ce42 d93c d8e4 9a3c
00000070: b504 76bd 2d69 273d 5bbf c5bb 5bb4 3b3d
0.019630548 -0.0557851 -0.02623578 0.0013767054 0.0525068 -0.04680552 -0.043647595 -0.03767231
-0.041963685 -0.06264263 0.054040793 0.015959214 -0.04002448 -0.011407948 -0.07744462 -0.04042999
0.0058957613 -0.002146692 -0.023467617 -0.0073396266 -0.06639204 -0.043492135 -0.022412851 0.086438075
0.053207725 -0.011064724 0.026521113 0.01890795 -0.060063083 0.040871788 -0.0060347742 0.045826297

res_blocks.0.bn1.weight f4 [32]
00000000: 6e8a 873f 1efe 783f 7a3b 483f dc77 123f
00000010: 27d9 633f e0f6 7b3f 0bb2 a73f 33f8 723f
00000020: 7e2d 7e3f 2da4 823f 93b2 953f 33fa 453f
00000030: 2ff4 843f e5e9 2b3f 9b29 233f 8b92 473f
00000040: 475f 303f fab4 b13f f006 8d3f f8ce 513f
00000050: ae8a 493f d212 b23f d1fc 783f 8efc a03f
00000060: d25c 933f 7f5d 6a3f dcd3 6a3f e12e 813f
00000070: fee5 5e3f 4e65 483f 5bcd 383f fbb1 4d3f
1.058912 0.9726275 0.78215754 0.5721414 0.89003223 0.98423576 1.3101209 0.9490997
0.99288166 1.0206352 1.1695122 0.773349 1.0387019 0.6715377 0.6373536 0.7795798
0.6889538 1.3883355 1.1017742 0.81956434 0.78727233 1.3911994 0.9726077 1.2577074
1.1512702 0.91548914 0.9172952 1.0092431 0.8706969 0.7827958 0.7218835 0.803497

res_blocks.0.bn1.bias f4 [32]
00000000: b6c6 39be 055d e5bd fbd2 56be 7b97 aebd
00000010: 6604 fe3b b5b0 733c 44ff 1fbf 0088 263e
00000020: ba66 613e cfc2 78be a32e 2ebf b902 a33d
00000030: 8d78 00be f0fa 05be 6e8b 413e 1c68 1dbe
00000040: cf6a 0dbe b414 72be 9401 08be 4886 a73e
00000050: 63e8 2a3e db00 e1be ee28 aabd 5269 46bd
00000060: a425 8c3c 688e e4bd dcbd f5bd dce9 b4be
00000070: 5212 febe f056 b7be 45bd 973e 5c03 6d3c
-0.18142208 -0.11199383 -0.2097892 -0.08524986 0.007751989 0.014873673 -0.6249888 0.16262817
0.22011843 -0.24293064 -0.6803991 0.07959504 -0.12545986 -0.13084006 0.18900844 -0.15371746
-0.13810275 -0.2364071 -0.13281852 0.32719636 0.16690211 -0.43945965 -0.08308588 -0.048440285
0.017107792 -0.11159974 -0.119991034 -0.3533467 -0.49623352 -0.35808516 0.2963659 0.014466133

res_blocks.0.bn1.running_mean f4 [32]
00000000: 97fe 98bf 810e e2bd dbf9 163e cb4e d33d
00000010: 13c4 033f 27a5 143f c448 35bf c724 8bbf
00000020: f4f6 5eba d24c 0b3d e932 69bf 514a 673e
00000030: 685b 013f a205 623e 531d 14bd 79ec b8be
00000040: 645e 43be 160a 3abf 2a5c f4be 83fb 32bf
00000050: 92f3 0d3f 286c 213f 07fa 403f 88fa c23f
00000060: 318c c4bf 2e09 583f 1d58 013f 2179 a23e
00000070: 444d ec3e 5c28 adbc 4541 5bbf 1398 023f
-1.1952695 -0.11037923 0.1474375 0.10317763 0.5147106 0.580645 -0.70814157 -1.0870599
-0.0008505427 0.03400881 -0.9109331 0.22586943 0.505301 0.22072461 -0.03616078 -0.36117914
-0.19078976 -0.7267164 -0.47726566 -0.69915026 0.55449784 0.6305566 0.7538151 1.5232706
-1.5355283 0.8438901 0.50525075 0.3173304 0.461527 -0.021137409 -0.8564647 0.51013297

res_blocks.0.bn1.running_var f4 [32]
00000000: 2061 2d40 1ab5 973f 0caf 1940 c28c f93f
00000010: 784c 6b40 07f8 0540 784a 4540 6cba 3140
00000020: 25de ef3f 825e 0340 beac 3040 5884 1440
00000030: a762 ee3f 0168 cd3f 23b0 0240 d892 f03f
00000040: 6c19 f63f 24a7 2840 2905 f63f 7195 b33f
00000050: c632 f73f 4802 0740 fe5d 6b40 c105 8240
00000060: 7e25 6e40 74b0 e93f 10a7 cc3f 98b2 de3f
00000070: 227b d43f eb72 a23f 8367 0740 c4cc 5540
2.709053 1.1852143 2.401309 1.9496081 3.6765423 2.0932634 3.0826702 2.7770033
1.8739668 2.0526433 2.7605433 2.3205776 1.8623856 1.6047364 2.0420005 1.8794813
1.9226508 2.6352015 1.9220325 1.4029981 1.931237 2.1095142 3.6776118 4.0632024
3.7210383 1.8256974 1.5988483 1.7398252 1.6600077 1.269132 2.1156929 3.340623

res_blocks.0.conv2.weight f4 [32, 32, 3, 3]
00000000: ed34 3dbd ad29 a2bd 6ee3 99bb 33b2 06bd
00000010: faa2 d43e 3742 e3bd 48ec 3cbd a5cf 9c3e
00000020: a86c 2cbd 73fd e43c 05d4 e83c e650 8e3c
00000030: 0e3d a6bc b6e7 0dbd 3865 cdbc 875e 643b
00000040: 0204 923c e099 edbc 8831 d83c 5201 4a3d
00000050: 2d3d 8c3c 9db3 2ebc 9c8b 04bd 54dc 913c
00000060: 4ccb 81bc 11f5 07be 9b96 173d 5600 72bb
00000070: 9b47 41bd 0dbc ef3d 6d91 56bd a81b 4d3d
00000080: b070 8fbd 2ccb 16ba 5cb0 d5bc ad97 6a3d
00000090: 3d19 733d 104f aeb9 ddb9 bd3c 4471 92bd
000000a0: 16bc 54be b269 973b ba9f 043e 7dce 46be
000000b0: 1796 d63d 8dbe 57bd 1c17 6dbd dcbc 24bd
000000c0: 8292 e4bd 5dde 60bd f1f5 98bd 1477 19bd
000000d0: a38c 46bd 506e afbd 09d1 fc3c 9f56 06bc
000000e0: 4970 913b ddee 56bd 29f5 53bd b477 9bbd
000000f0: a709 c83d 6550 8fbd 334b 25bc 4596 0bbc
00000100: 9e7b 02bd 812b 313d 34c9 893c d691 183d
00000110: 617b 82bc 6ba1 293d 4b94 19bc 0eda 0d3e
00000120: bc9d 983b 3683 a63c 308e cc3c cff0 56bd
00000130: 57b7 89bd 75cf 90bd db42 a23c 00b2 083d
00000140: 3b03 a73d f374 df3c 453d c73d 08b5 a539
00000150: be80 8dbc 0b6a cdbc 5b7b 913d eb3f e1bc
00000160: 5a44 793e efa2 1c3d 0c00 88bd 1d70 aa3e
00000170: 723c 4ebd 0a2d 6cbd d7c7 033f 3999 62bd
00000180: 748a 94bc fa86 ac3e 3c50 8ebd 8342 853d
00000190: 261a 8f3c 6b22 953d 95af dfbd 2118 cdbd
000001a0: b517 9abd 23f4 9e3d d143 453c a78b b03c
000001b0: f7bf 14bd 9a84 1cbe adfa 0bbd 5842 fabc
000001c0: 2dcf 98bc 1697 54bd 0b8c 11bd bcca 94bd
000001d0: 5345 82bd 8c3d cd3d dd1d 2ebc f67e 28bd
000001e0: 7a87 a6ba 8ed9 263d a503 92bc 1c0e eb3a
000001f0: 0e1e 17bd aefe bdbc ca3d 01bd 866f 1c3b
00000200: d610 193d 3c68 84bd 2975 aa3b 3d11 bebd
00000210: 6ae1 46be fdb7 0bbd e09c f9bb be62 c1bb
00000220: c5bf 473e a056 8abd bb2c debc e712 783d
00000230: 6458 cfbc ddec 803d ded4 b13d 8920 c7bc
00000240: ee5b 7d3d f870 043d fa53 9dbd dd61 d53d
00000250: d32f 6d3d 7078 ad3d 5588 c43d 5117 f3bc
00000260: e1fc 8fb9 b2ce c8bc 320a 78bc d121 593d
00000270: 9434 f3bd 9946 a0bd 991a dfbd 45c1 ecbb
00000280: 8269 1e3d d6f2 86bd e520 83bc 1f73 1bbb
00000290: 703a 05bb 58a0 0fbc 7d4e 183c eb11 5bbc
000002a0: 026a b6bb 40f9 27bd 8914 60bc 740f 9c3d
000002b0: f68a 073d 506b 4c3d 352f 13ba 5134 003c
000002c0: 60e5 483c 1eab 3f3d ae42 033c c8c2 c33c
000002d0: 8cf6 0e3e f393 a0bd 6dfb b1bc 8966 90bd
000002e0: d921 34bc 6f3c 983c 05fc 4cbd 2de6 583d
000002f0: 5fc9 5c3c e9ac a4bc f0fe c33d b82c 09bc
00000300: 6a0b e33c 4f0c bb3d e295 d1bc c100 663c
00000310: 5daf fc3c 5e3a 1fbd 250e 09bd dcd0 9cbe
00000320: d375 8a3d 0388 053d 739e 20bd ff2c 123d
00000330: d869 103d 6ef5 72be 7c76 56bb 8dc8 b23a
00000340: c175 b6be 7d34 12bd 522f b8bb b6be 55be
00000350: c5a5 173c a08e dc3a 0459 a2be b918 a3bc
00000360: 596e 52bd f9c6 5e3e 08e6 153d e935 3ebb
00000370: c49c 6b3e 4913 b6bd fe8c 82bd 4778 c13e
00000380: af49 fbbc ccdb e43c e621 ecbd 3f89 133d
00000390: e3be 8cbd 4baa 2fbe 910f 86bd 276e 983d
000003a0: 356d fbbd 2c14 2d3d 2c1c 423d 9a99 d83c
000003b0: 6783 783c 40ba 973d 23da 963d fb65 6c3d
000003c0: 5d0e bd3c f474 313d a521 533d e675 183d
000003d0: 60b1 c4bc 9748 823d bfbd 263d 449d c83b
000003e0: af77 8a3d 176c 48bd 924e b9bc 22e8 163e
000003f0: b8f4 00bd e1af fc3d 23ff 27bd c30a 533d
-0.046193052 -0.07918105 -0.004696301 -0.032884788 0.4153059 -0.11096614 -0.046123773 0.3062717
-0.04209581 0.027952885 0.028421411 0.01737256 -0.020292785 -0.034644805 -0.025072679 0.0034846382
0.017824177 -0.029004037 0.026390806 0.049317665 0.017119015 -0.01066294 -0.032359704 0.017805256
-0.01584401 -0.13277079 0.037008863 -0.003692647 -0.04718743 0.1170579 -0.052384783 0.050075203
-0.07003915 -0.0005752321 -0.026085071 0.057273556 0.05935024 -0.00033246772 0.023159916 -0.0715051
-0.20774874 0.004620754 0.12951556 -0.19414707 0.10477846 -0.052671958 -0.057883367 -0.040219173
-0.11160757 -0.054899562 -0.074687846 -0.037467077 -0.048473965 -0.08565962 0.030861394 -0.008199363
0.0044384343 -0.05247389 -0.051747475 -0.07591191 0.09767466 -0.06997756 -0.01008873 -0.008519714
-0.03185617 0.04325438 0.016819574 0.037248455 -0.015927972 0.041413706 -0.009373735 0.13852713
0.0046574753 0.020326238 0.024970144 -0.052475747 -0.067244224 -0.07070819 0.01980727 0.03337288
0.08154913 0.027277445 0.09728483 0.0003160613 -0.017273303 -0.02507498 0.07103606 -0.027496299
0.2434248 0.038241323 -0.06640634 0.3328866 -0.050350614 -0.05766014 0.51476806 -0.055321906
-0.018132426 0.3369673 -0.06948897 0.06506827 0.017468523 0.07281955 -0.109221615 -0.10014368
-0.07524053 0.07761409 0.0120400945 0.021550966 -0.036315884 -0.15284958 -0.03417461 -0.030549213
-0.018653477 -0.0519019 -0.035533946 -0.07265231 -0.06360879 0.10021505 -0.010627237 -0.041136704
-0.001270517 0.04073482 -0.017824003 0.0017933282 -0.036893897 -0.02319273 -0.031553067 0.0023870184
0.03736957 -0.06465194 0.005201955 -0.09280632 -0.19421926 -0.03411101 -0.007617578 -0.0059016636
0.19506748 -0.06754804 -0.027120939 0.0605649 -0.025310703 0.06295178 0.08683179 -0.024307506
0.06185525 0.032334298 -0.07682033 0.104190566 0.057906937 0.08470237 0.09596316 -0.029674204
-0.00027463495 -0.024512623 -0.0151391495 0.053010765 -0.11875263 -0.078259654 -0.10893745 -0.007225188
0.03867484 -0.06589286 -0.016006896 -0.002371974 -0.002032902 -0.008766256 0.009296057 -0.013370971
-0.0055668363 -0.041009188 -0.013676771 0.07620135 0.033091508 0.04990703 -0.00056146394 0.007824973
0.0122617185 0.04679405 0.008011503 0.02389659 0.13961238 -0.07840719 -0.021726334 -0.07050807
-0.010994398 0.018583504 -0.050045032 0.052953888 0.013475745 -0.020101981 0.0957011 -0.008372478
0.027715404 0.09133207 -0.025584165 0.014038266 0.030845338 -0.038874023 -0.033460755 -0.30628097
0.067607544 0.032600414 -0.03921361 0.035687443 0.03525719 -0.23726436 -0.003272443 0.0013640091
-0.35636714 -0.035694588 -0.0056208754 -0.20873532 0.009255831 0.0016827174 -0.3170854 -0.01990925
-0.051374767 0.2175559 0.036596328 -0.0029023832 0.2300902 -0.08890397 -0.063745484 0.37787077
-0.030674784 0.027936839 -0.11529903 0.03601956 -0.06872346 -0.17154805 -0.06545938 0.07442885
-0.12276689 0.042255566 0.047390148 0.02644043 0.0151680475 0.07408571 0.07365825 0.057714444
0.023078138 0.043324426 0.051545758 0.03722181 -0.02401036 0.06361502 0.0407083 0.006122263
0.06761109 -0.048931208 -0.022620473 0.14736989 -0.031483382 0.12338234 -0.0410148 0.051523935

res_blocks.0.conv2.bias f4 [32]
00000000: 8b9d c43c fbc6 33bc fff6 9f3d 7407 233d
00000010: bad1 17bd 7456 90bd 4e2d b03c 8487 3d3d
00000020: c045 7fbc 75dc 733d 7881 85bc 40a7 3b3c
00000030: 9bc2 1b3d 1fe8 03bd c7b3 48bd 4b76 5d3b
00000040: e0e8 22bd e38e ec3a 6bea 97bc fe27 fabc
00000050: 59c8 adbc aa24 583b 0027 a03c 83a6 8ebc
00000060: 20be eb3c 30cb 6c3d f67e 41bd 38d4 d63c
00000070: ffae 95bd fcb3 04bd 7199 78bc b2a4 56bb
0.024000904 -0.010972734 0.07810783 0.03980203 -0.037065245 -0.070477396 0.021505978 0.046271816
-0.015580595 0.059536416 -0.016297087 0.01145345 0.038027387 -0.03220379 -0.048999574 0.0033792432
-0.03977287 0.0018047955 -0.018544396 -0.030536648 -0.021213697 0.0032980838 0.019549847 -0.017413383
0.028777182 0.057810962 -0.04724022 0.02622424 -0.073087685 -0.03239821 -0.015173302 -0.0032751975

res_blocks.0.bn2.weight f4 [32]
00000000: e226 933f 035e 393f 27be 2c3f 1f87 ac3f
00000010: c0cc 893f 0a5e 963f 83a8 2d3f 9360 313f
00000020: 8906 4a3f 7c19 383f 23ec 7f3f 7c1e 983f
00000030: 7093 503f 710d 2a3f f5e7 d13e 223b 343f
00000040: 85ab 913f e978 1c3f 6244 2c3f 44b6 4b3f
00000050: c584 e63e 804f 853f e4fc 8d3f 6c96 e23e
00000060: d5e6 273f 57cc 513f d088 613f 9646 e13e
00000070: f5e5 733f 8d38 473f 78b8 fb3e 24d4 053f
1.1496241 0.72409075 0.6747765 1.3478736 1.076561 1.1747448 0.67835253 0.69287986
0.7891622 0.71913886 0.9996969 1.1884303 0.8147497 0.6642676 0.40997282 0.7040273
1.1380469 0.61121994 0.67291844 0.7957499 0.4502317 1.0414886 1.1092801 0.44255388
0.65586597 0.8195242 0.88099384 0.43999165 0.9527276 0.77820665 0.49164176 0.52276826

res_blocks.0.bn2.bias f4 [32]
00000000: 2e26 d1be 2d5f acbd 135f cebe cf85 25bd
00000010: 54f4 0fbf 1ede ecbe d966 67be 463a 87bd
00000020: 0797 48bc f2df d0be 88da 53bf 6434 49bf
00000030: 3e73 d6bd d989 8fbd 425f 6a3d 6e67 4c3d
00000040: 3410 cfbe 252d 5cbe 9c98 afbd b835 adbe
00000050: c452 0abe 2aa5 9bbe a16a 80be e894 fcbe
00000060: 136b 11bf 56dc b1be 7054 c0be e60b 92bd
00000070: 86d5 08be b2c9 6a3c 8830 89be 3038 b6be
-0.4084944 -0.08416591 -0.4030691 -0.040410813 -0.5623219 -0.46263212 -0.22597827 -0.06602912
-0.012243039 -0.40795857 -0.8275533 -0.78595567 -0.104711995 -0.07008714 0.05721975 0.049903326
-0.4044205 -0.21501596 -0.0857403 -0.33830047 -0.13508135 -0.30399448 -0.2508135 -0.49332356
-0.5680401 -0.34738415 -0.3756442 -0.07131176 -0.13362703 0.0143303145 -0.2679484 -0.35589743

res_blocks.0.bn2.running_mean f4 [32]
00000000: fa82 c4be e64f d8bd 40c8 8a3e cae0 54bf
00000010: 092b a8be e669 ddbf 3067 7bba 2536 f73f
00000020: 617e 54be bf7e 3a3f 0496 c33e 85f5 0cbf
00000030: 0f17 dcbf 7790 9bbe c68d 843e d736 fd3f
00000040: 2895 17bf 1b3a 883f 96f8 8ebf 14b7 0d40
00000050: d2d2 423f e940 d1be fd19 11bf 9fa1 1fbe
00000060: 2487 aabf 7cdf bfbf 2f1b ad3f 49a3 51be
00000070: aa3c 23bf ea2b 0ec0 84a8 86bf 9874 c8bc
-0.38381177 -0.105621144 0.27105904 -0.831555 -0.32845333 -1.7297943 -0.0009590266 1.9313399
-0.20751335 0.7284965 0.3820039 -0.55062133 -1.7194537 -0.30383655 0.25889415 1.9782361
-0.5921197 1.0642732 -1.1169612 2.2142992 0.76102936 -0.40869835 -0.5668028 -0.15588997
-1.3322492 -1.4990077 1.3523921 -0.20472445 -0.6376444 -2.2214303 -1.0520177 -0.024469659

res_blocks.0.bn2.running_var f4 [32]
00000000: e229 0a40 9727 4640 8e92 4540 58cd af40
00000010: 1ab2 1c40 11aa bd40 8ce0 2840 48d5 6a40
00000020: 71ea 9540 093b 2640 fd4e 843f ecb5 c53f
00000030: 40a1 b640 4113 d63f 9016 f83f 9294 4a40
00000040: 630e d83f cf5b ec3f 03b9 cb40 8ca9 6240
00000050: 52b9 ff3f 3ed7 8e40 7181 1140 2145 bb3f
00000060: eab7 8540 0d6d 4f40 eca3 db3f 7644 0140
00000070: f1e9 633f 5d65 b240 8278 3840 9595 bd3f
2.1588063 3.0961664 3.08707 5.4938164 2.4483705 5.92701 2.6387053 3.6692677
4.6848683 2.5973532 1.0336605 1.5446143 5.707184 1.6724626 1.9381886 3.165318
1.687939 1.8465518 6.3663344 3.5415983 1.997843 4.4637747 2.2735255 1.4630471
4.1787004 3.241031 1.71594 2.0198035 0.8902884 5.5748734 2.8823552 1.4811274

res_blocks.1.conv1.weight f4 [32, 32, 3, 3]
00000000: faef 153d 66f7 c83c df6d 92bd 3fdb a63c
00000010: cff2 64bb c372 52be 0787 10bc a5b9 76bc
00000020: cce7 c0bd b5d5 f43d e33b 9cbc 6d2b 473c
00000030: bb29 48bd a269 7cbd 5cba 0e3d 9179 62bd
00000040: 4bdb 70bc 45aa 8abd bda9 053d 6d1e ba3c
00000050: 1dee 3d3b 76e0 d7bc 6de0 ea3c 2197 58bd
00000060: b745 9abc 2d84 00bd d0d1 1f3e 9e6d 03bf
00000070: c88e 8e3c c825 5f3c 9cb8 243b 44e7 42bd
00000080: 4c75 8bbc 1065 ff3c 0059 5dbc 8ce6 65be
00000090: a187 103c 80ec e9bc 9df1 25bd 561d 653c
000000a0: ede7 74bd 55dd 14bc fb70 413d 00dd fb3d
000000b0: ff7f 0a3d c7c9 c63b 50c3 89bc 760a 47bc
000000c0: 33d4 7c3c 90f6 a5bc 6ea1 613b 1ec5 43bd
000000d0: 36ae 04bd 97f8 96bd 5e9c afbc e68e cd3c
000000e0: 46f7 bfbc e23a 263d 2991 9dbb dae6 42bd
000000f0: 73f0 493d 3971 b13d a2c3 0a3e 0e6f d2bd
00000100: 9c52 1abd 64da 3d3d d9bc bd3d c019 263e
00000110: 6b4b 53b8 dea0 713c 46a3 edbc e3bc 48be
00000120: 6aaf 603d 639e 223c 6c1e d93d 0a55 083d
00000130: ae31 68bd bd78 723d 7c1f 023d 1ba4 bb3c
00000140: 1da9 f43d dba0 f93c daf5 a53c 0784 8fbb
00000150: d419 b43d 5a1a 0b3d 725a 743d 1610 e43c
00000160: 8120 bcbe e731 38bd 18df 123d c12d 763c
00000170: f3b3 ea3c 470c 89bc 50d5 56bc b2c2 1e3c
00000180: 6849 9c3c caec 22be f94e 84bd 5b10 e83b
00000190: 18b7 413c 9e8f fcb8 2dba e73a 67d2 aaba
000001a0: 32aa 533c 0769 5cbc 7e95 bf3c 605c 1fbc
000001b0: de45 1b3e 2cc6 95bd d2aa 11bd 0d32 35bd
000001c0: bc6e 0a3d 1e0e 0e3d c188 e5bc 92c0 3a3c
000001d0: ec93 733d 93b6 04bb 9be1 02bd 1e88 23bc
000001e0: 76df d2bb 86d0 09bd 60a9 d03d c800 adbc
000001f0: 54b4 ac3c 2faf 9abc a66c 6ebe 8ae4 2bbe
00000200: c04f c53a 31ef 2cbd 42c7 debd b353 12be
00000210: e7c4 44bc 136c f63c b81e 1e3d 5bd4 4c3d
00000220: 6c4d 8f3c 7fb2 43bd 0f45 aebd b3c9 90bd
00000230: 3a00 e33d 7025 65bd 6f2e c83d c69b 94ba
00000240: a19d 25bd d181 803e 8c69 24bd dd15 5e3c
00000250: edbb 7d3b be69 853e ab86 ad3c 003a b53c
00000260: 1f30 66bc fd79 2abd 77ac 463d 43ae 003d
00000270: 677d a13d 3712 8b3e 14d3 18bd d831 fc3c
00000280: 35e4 493c 11cd 5bbe b869 2c3d f52c f53c
00000290: 2f8e 783d 440d e43d e502 0aba f6af 153e
000002a0: af5e 57bd f70a acbd 4278 253d 4505 26be
000002b0: 7877 cf3c 4d9f bbbc 0228 1dbb 5cd1 44bd
000002c0: 76c0 713c 27ad 933b 66c5 a13c ccb6 c63d
000002d0: ca74 6cbd 6964 de3c 6cd6 fc3b baff 1a3d
000002e0: d1ad 3a3c 3db7 ee3d 2a74 143d 4a7f 063c
000002f0: f4a2 e6ba 0935 9c3d 79f3 20bb 223d 40bc
00000300: 5aa9 bf3c 7c90 86bd 5e33 813c 9d1e b63c
00000310: ccfc 81bc a114 3d3d 5a82 203c 6b89 ca3b
00000320: 5906 70bc 3986 4f3b 86c5 1dbd a54a b9bb
00000330: 24ab 883c a24e 0c3d 7f87 e23d b31e 3d3d
00000340: 957f 9d3d cfec 82bd d24f ce3c 0576 d23d
00000350: 1f22 01be 94bf 4d3d 64ec f5bc e647 35bd
00000360: 17dd 2dbe 8489 3bbd 1a78 5c3c c0fa acbc
00000370: 0670 28bc 7a7d 9cbd 7728 8dbc 8027 bbbd
00000380: 380e 21bf 3426 01bd 3037 35bd e737 3abc
00000390: e265 8a3c 8f4d 2dbd f912 5bbd 8c7c a33b
000003a0: 1c60 d23b 97cf e6bc 5dd5 8d3c 6d52 483c
000003b0: c60b 83ba 0b58 933c 2a73 01bd 9642 7e3d
000003c0: 04f6 9e3c 5e57 523c 22c8 53bb cabb ec3c
000003d0: eb82 e43c 44cf 933d 9272 b13d 1008 9a3d
000003e0: c80e bcbe da3f 573c 4f52 4a3c 72e5 44bc
000003f0: 99a7 db3c 2bb5 c0bc d5f1 353d c4b8 c1bc
0.036605813 0.024532031 -0.071498625 0.020368217 -0.0034934764 -0.2055159 -0.0088212555 -0.01505891
-0.09419212 0.11954824 -0.019071525 0.01215635 -0.048867922 -0.061624177 0.034845695 -0.055291716
-0.014700721 -0.067707576 0.03263258 0.022719586 0.0028981038 -0.026352149 0.028671468 -0.052878503
-0.01883207 -0.031376053 0.15607381 -0.5133914 0.017402068 0.013619848 0.002513445 -0.047583833
-0.017023705 0.03117612 -0.013509989 -0.22451228 0.008821399 -0.028555155 -0.040513624 0.013984045
-0.059791494 -0.009085973 0.047226887 0.12298012 0.033813473 0.006066534 -0.016816765 -0.01214849
0.015431452 -0.020259172 0.0034428495 -0.047795407 -0.032392703 -0.073716335 -0.021436866 0.025092553
-0.023433339 0.0405835 -0.004808564 -0.04758344 0.049301576 0.08664174 0.1355119 -0.10275088
-0.03767644 0.04635085 0.092645355 0.1622076 -5.037656e-05 0.014747826 -0.029008519 -0.19603305
0.054854788 0.009925458 0.10601506 0.033284225 -0.056688003 0.059197176 0.031768307 0.0229054
0.11946318 0.03047221 0.020258833 -0.0043797526 0.08793989 0.033960678 0.059656568 0.027839702
-0.3674355 -0.044969466 0.03585729 0.015025557 0.02865026 -0.016729487 -0.013112381 0.009689974
0.019077972 -0.1591064 -0.06460375 0.007082028 0.011823438 -0.00012043047 0.0017679386 -0.0013032675
0.012918996 -0.013452775 0.023386713 -0.009726614 0.15163371 -0.07313189 -0.035563298 -0.044237185
0.03379701 0.034681432 -0.02801931 0.011398451 0.05946724 -0.0020250424 -0.031953435 -0.009981183
-0.00643533 -0.03364613 0.10188556 -0.021118537 0.02108208 -0.018882362 -0.23283634 -0.167864
0.0015053675 -0.0422203 -0.10877849 -0.14289741 -0.012009836 0.03008083 0.038603514 0.050007205
0.017492972 -0.04777765 -0.08509266 -0.07069721 0.110840276 -0.055943906 0.097744815 -0.0011337928
-0.04043353 0.25099042 -0.04013972 0.013555017 0.0038716749 0.26057237 0.021182379 0.022122383
-0.014049559 -0.041620243 0.04850432 0.03141619 0.07885247 0.27162334 -0.037310675 0.030785486
0.012322475 -0.21464945 0.04209301 0.029928664 0.06068247 0.11135343 -0.00052647135 0.14617905
-0.05258053 -0.08400529 0.04039789 -0.16212948 0.025325522 -0.022903109 -0.0023980145 -0.048051223
0.014755359 0.0045067254 0.019747447 0.097028345 -0.057728566 0.027147489 0.0077159908 0.037841536
0.01139398 0.11656044 0.036243595 0.008209059 -0.0017596171 0.07627303 -0.0024559184 -0.011733325
0.023396183 -0.06570527 0.015771564 0.022231394 -0.015867613 0.04616225 0.009796703 0.0061809323
-0.014649951 0.0031665696 -0.03851845 -0.0056546503 0.016683169 0.034254678 0.11061 0.046171855
0.0769035 -0.06392824 0.025184546 0.10276417 -0.12610672 0.05023153 -0.030019946 -0.04425802
-0.1697887 -0.045785442 0.013456369 -0.02111566 -0.010280615 -0.0764112 -0.01723121 -0.091383934
-0.6291232 -0.031530574 -0.044242084 -0.011365867 0.016894285 -0.042310294 -0.05348489 0.0049892124
0.0064201485 -0.028175158 0.017313654 0.012226683 -0.0009998016 0.017986318 -0.03160397 0.06207522
0.019404419 0.012838213 -0.0032315333 0.028898139 0.027894458 0.07217267 0.08664431 0.07521069
-0.36730027 0.013137782 0.012348725 -0.012017595 0.026813315 -0.023523888 0.044420082 -0.023647673

res_blocks.1.conv1.bias f4 [32]
00000000: bfc8 863d 7312 81bd 2173 6a3d ebf5 d13d
00000010: b5e8 4f3d dbc1 7fbc 261a 9ebc 4a08 083d
00000020: a480 92bd 6e76 d4bc ac1c 713d c5d1 763c
00000030: a9f2 f53c 2c46 003d 1bfc 9e3c aabf 3e3d
00000040: 94b0 713d 0474 0e3d d427 ce3c 3178 68bd
00000050: 8439 1e3c f792 fabb 50c9 21bd cc26 2cbd
00000060: 8add 753c f621 423d 80e2 f9bc 8ed7 9cba
00000070: 4ad7 51bc 899f 0bbc 2c20 8a3c 0614 5b3d
0.06581258 -0.06302347 0.0572387 0.10251983 0.050759036 -0.015610184 -0.019299578 0.03321103
-0.071534425 -0.025935378 0.058865234 0.015064661 0.030022936 0.03131692 0.019407323 0.046569504
0.05900629 0.03477861 0.025165476 -0.05675525 0.0096572675 -0.007646914 -0.039498627 -0.042029187
0.015006432 0.04739567 -0.030503511 -0.0011966096 -0.012807677 -0.008521923 0.016861044 0.053485893

res_blocks.1.bn1.weight f4 [32]
00000000: 10c1 813f c699 5e3f 1a49 7d3f b257 ac3f
00000010: 6c61 733f 5bfe 823f d64e 873f 7948 963f
00000020: 5dd7 773f d4dc 473f bab8 9d3f 9a88 803f
00000030: a02f 4e3f 8a36 863f cdeb 523f 927a 673f
00000040: b0ec ad3f b1e6 723f 4b43 713f 54b2 6e3f
00000050: c735 8f3f 647f 863f 1a45 573f f681 b83f
00000060: 60cf 523f 8ab7 873f dc2a 633f b1e6 6d3f
00000070: 7e44 493f 1308 623f f3a9 5e3f c46f 573f
1.0137043 0.8695339 0.9893967 1.3464262 0.9507053 1.0233873 1.0570934 1.1740867
0.96812993 0.7807133 1.2321999 1.0041687 0.8054142 1.0485394 0.82391053 0.904214
1.3587856 0.9488326 0.94243306 0.9324086 1.1188287 1.0507627 0.84089816 1.4414661
0.8234768 1.0602887 0.88737273 0.9293013 0.78620136 0.8829357 0.8697807 0.84154916

res_blocks.1.bn1.bias f4 [32]
00000000: 7f9e 193d ec98 97bf 8419 35be 2b68 d6be
00000010: 2c6c 16be 138b fc3d 7771 163e f46f ea3d
00000020: 836b aebe eb87 bbbb fa60 cdbe 3752 55bb
00000030: b011 4abf 3709 96be 075d 1fbe 87f1 c73d
00000040: b468 23bf 69bb 0cbd 0116 15bd f235 b4be
00000050: cdfc e7be f2c3 2fbe a7bd 28be a62a 003e
00000060: 2323 5abe adb2 b03e b051 85be 3bc6 3ebe
00000070: 7e20 823e b206 d73a 7c5b 1cbe 646e f8be
0.03750467 -1.1843543 -0.17685515 -0.4187635 -0.14689702 0.12331214 0.14691721 0.114471346
-0.340664 -0.00572299 -0.4011305 -0.0032550225 -0.7893324 -0.29303905 -0.15562831 0.097628646
-0.6383164 -0.034358416 -0.036397938 -0.35197407 -0.4531006 -0.17164591 -0.16478597 0.12516269
-0.21302466 0.3451132 -0.26038885 -0.18630306 0.25415415 0.0016405194 -0.15269274 -0.4852172

res_blocks.1.bn1.running_mean f4 [32]
00000000: 14bc 41be 413a 4e3f 2577 263c deba 9b3f
00000010: 0148 923f 3da1 babe 3b84 ebbf 7f25 353f
00000020: 81c3 823e d63b 8ebe 5a3a 8dbe a5e3 033e
00000030: 33be 383f 8850 1040 5ab0 863e e0b6 a0be
00000040: 9f0f 70be a522 0f3e 8a8d c43e a98f 5a3e
00000050: d19a 0c3f 46bc 1e3f a573 133e 04e6 c3be
00000060: 1966 cf3f 3d86 c0be 6ddc 3e3f 2fec e9be
00000070: 7267 2dbf 246c 7abf 9048 a03f 5ae3 d53f
-0.18919402 0.8055764 0.010160242 1.2166402 1.1428224 -0.3645114 -1.8399729 0.7076034
0.25539783 -0.27780026 -0.2758358 0.12879808 0.7216522 2.2549152 0.2630642 -0.31389523
-0.23443459 0.1397806 0.38389236 0.21343865 0.5492373 0.6200603 0.14399584 -0.38261425
1.6203033 -0.37602416 0.74555093 -0.45688006 -0.6773597 -0.9782126 1.2522144 1.6710007

res_blocks.1.bn1.running_var f4 [32]
00000000: f87c 7c3f 23e0 1a3f 09d8 bd3f edee 943f
00000010: 4b83 fa3f 2ea5 f53f c2da e63f f321 fd3f
00000020: 8a9e 663f 44b8 b33f a30a cb3f 9026 f13f
00000030: dabd 533f b552 c93f acb3 933f 5b7a c83f
00000040: f10b fa3f 0351 ea3f ac64 c23f 1c6c b33f
00000050: 7bf5 2640 9933 ca3f 85b9 bb3f 3d0b 0f40
00000060: 1b63 813f a4a8 d63f 3b78 ab3f 0ac9 c83f
00000070: 29ac ab3f 672d 8d3f e525 fe3f b7d2 dd3f
0.9862819 0.60498255 1.4831554 1.1635414 1.9571317 1.9191034 1.803551 1.9775985
0.9008566 1.4040608 1.5862621 1.8839893 0.82711565 1.5728365 1.1539207 1.566234
1.9534894 1.8305973 1.5186973 1.4017367 2.608733 1.5796996 1.4665991 2.235061
1.010837 1.6770215 1.3396066 1.5686352 1.3411914 1.1029481 1.9855314 1.732993

res_blocks.1.conv2.weight f4 [32, 32, 3, 3]
00000000: 7517 49bc d565 75bc c49a dd3c d5ab 48bc
00000010: 703f 59bd ac27 33bd 8f74 003e 14e1 e93b
00000020: b5bf 99bb d64f 8abc 3784 b63b 9e0c 59bd
00000030: 0561 cabd 308c 9dbd 8f91 95bd 59b0 70bd
00000040: 8e93 b5bc 8dd9 85bd 1084 e3bc 1e72 de3c
00000050: 79f3 023c 8056 7bbc afb8 95bd 5a2e 31bc
00000060: 9221 853c 05b1 29bc 7fbe 89bd 4888 86bb
00000070: a6c8 21bd c852 7dbd b169 b03d 6eb5 8f3d
00000080: a4af b43d 21e3 ba3b 4005 e13b 057c a3bd
00000090: 3c18 473c b8cc a7bc 7ef7 fa3d e985 33bc
000000a0: 09cd 283d a7c5 b33c 8b68 15bd c007 263c
000000b0: e3d7 333d f4c5 c43c 10ef 15bd 1af4 65bd
000000c0: 2629 d63c 8dc8 cabc b2c8 65bd f128 9abd
000000d0: bacb 0dbd c9e2 16bd 3184 19be a957 acbd
000000e0: caa5 1dbe bb79 b13d 4391 a93c dbbf aa3d
000000f0: 76ab e8bd c116 46bd bc84 debd e21f 22bc
00000100: ffa7 30bc 9623 ba3b 2a5b 6d3c 5b8b 8dbd
00000110: 331c f6bd 014d b33b 46f8 d5bc b63e 75bd
00000120: cae5 b53c 686d a83c 2bdb 843b 7aeb 913b
00000130: 8093 0dbd 0a67 13bc 5d26 ff3b ed3e 833c
00000140: 8d6c 7f3c e4b9 0e3d a350 8f3d c362 8fbd
00000150: 7f4f 92bc a944 58bc 6be9 953a 015a 3f3d
00000160: 62db af3d 4777 b4bc d468 2bbb b119 37bc
00000170: 6251 72be ba9c debc 0ba2 c2bc 9160 073f
00000180: a8ea 99bb 5dc4 8ebb 0943 50be be9b 78bc
00000190: 4565 e53c 8916 06bc 8dc1 763c 926d 82bc
000001a0: 2339 81bd 31ea b3bc 9212 733d 3434 67bc
000001b0: 596f 5abd 153e 8f3d 7148 86bd 697b 00bd
000001c0: 7104 053e 3c65 0abd 0b6c 54bd 4115 72bd
000001d0: 0dd1 3abd af7f 8f3c 4113 903d e2ba 1fbd
000001e0: 5833 c63c 2533 433e 4f4a 863c ad80 7ebb
000001f0: 8e37 403e 883f d63c 6cb3 efbc 59d8 a7be
00000200: d3dd c5bc 2571 3a3c 13f3 d1bd 304a 4fbd
00000210: 8208 033d 2ac5 b93c 604a ff3c b3f2 d73c
00000220: 9e97 e23b f2b9 25bc 4dff a93c 6911 2b3d
00000230: 1f6a 0abc 70c4 723d 627b bcbd 8480 d53c
00000240: f11d f9bc dc86 633d 2a0d 523b cf8c 2d3d
00000250: 5367 2e3f 0421 313d 9de0 1fbd a3a0 6c3d
00000260: a3bf 4cbd 5934 8ebc aaa3 b8bd 99d5 2a3c
00000270: 8650 2bbd cc88 bebe 7935 0abd a1a8 07bd
00000280: 7e07 dbbd ea1e 03bc 4e69 05bd 5e00 1bbc
00000290: 5fa1 56bd ec76 013d d0d4 023c 3dd6 663d
000002a0: 25e7 17bd c68f 8cbd 20cb b0bb 8cbe 79bd
000002b0: 46f7 0f3c 62f0 4ebd 91e8 473d 30e3 383d
000002c0: 182c 303d b717 45bd 9dc1 83bd 545f 8bbd
000002d0: d777 60bd c508 70bd ea49 f9bb c294 d5bc
000002e0: 07a1 533e 937f 6cbd b17f 2fbd c5c0 bab8
000002f0: 1d95 4dba 395a 1abd 904a 91bd 6f4f 07bc
00000300: 3454 0cbd 1f88 a43d 1cd6 0cbd 056d aebc
00000310: 15c6 acbd b2d8 07bd 3344 75bd 51e6 a13d
00000320: 4b76 3abd 2af4 0a3c f713 8e3c 327b b1bb
00000330: 1b0b 8f3c fd5e c2bd 0e95 433d b446 0b3d
00000340: a4d2 2ebe 0013 133c d83a 2ebb 1107 2dbe
00000350: 9936 ee3c dc83 5f3d 758f 44be ad6b da3c
00000360: 77d5 793c 90ae 31bd fd8f d23b 590f 17bd
00000370: 0463 fbbc 5a58 b7bd 8d79 ac3c fc21 b0bd
00000380: 65bb 49bd c1cf 1c3d 677d 483d d692 6a3d
00000390: 4236 e23c faca 293e 08ec 4cbb 8939 8f3d
000003a0: a86d 823d c9b0 763d 2091 133d 005f 2ebc
000003b0: 20cf 653d 7a5d 93bc b53d 1ebd c92c 1abc
000003c0: 3f8f 0fbd 50af 363c a6e2 67bb f639 9cbb
000003d0: 41d8 2d3c abc0 3dbe c287 9cbc b31f 983c
000003e0: 04f8 47bd 99b6 6cbd 8cef d8ba 8019 83bd
000003f0: 023e 8e3b ad67 2b3e 4113 a2bd 012e 5a3b
-0.012273659 -0.014977892 0.027051337 -0.012247999 -0.053039014 -0.043739006 0.12544464 0.007137427
-0.0046920427 -0.016883772 0.0055699605 -0.05299055 -0.09881786 -0.07692754 -0.07303154 -0.05876193
-0.022165086 -0.06535635 -0.027772933 0.027154025 0.007992619 -0.015340447 -0.07310616 -0.010814274
0.01625136 -0.010357146 -0.06725787 -0.0041056015 -0.039497994 -0.061846524 0.08613909 0.07017027
0.08822563 0.0057033454 0.006867081 -0.07982639 0.012151774 -0.02048336 0.12254237 -0.01095722
0.04121116 0.021944834 -0.036476653 0.010133684 0.043907057 0.024020173 -0.03660494 -0.056140997
0.026142668 -0.024753833 -0.0560996 -0.0752734 -0.034618117 -0.036837373 -0.14991833 -0.08415157
-0.15395275 0.08665796 0.020699149 0.08337375 -0.113608286 -0.048361544 -0.10865161 -0.009895297
-0.010782241 0.0056805117 0.014487067 -0.069113456 -0.12017097 0.005471826 -0.026119363 -0.05987426
0.022204299 0.020559981 0.004054447 0.00445312 -0.034564495 -0.008996734 0.0077865557 0.016021216
0.015589845 0.034845248 0.06997802 -0.07001259 -0.017860172 -0.013199964 0.0011437362 0.046716694
0.08586766 -0.022029532 -0.0026155012 -0.011175559 -0.23663858 -0.027174342 -0.023758909 0.52881724
-0.0046971627 -0.0043569044 -0.20338072 -0.015173851 0.02800239 -0.008184084 0.015060795 -0.015921388
-0.06309726 -0.021962257 0.059343882 -0.014111567 -0.053328846 0.06994263 -0.06556786 -0.031367693
0.12989976 -0.03378795 -0.05186085 -0.0591023 -0.045609523 0.017516939 0.070349224 -0.038996585
0.024194404 0.19062479 0.016392855 -0.003883402 0.18771192 0.026153341 -0.02926036 -0.32782248
-0.024153626 0.011379515 -0.10251441 -0.05060786 0.031990536 0.022677023 0.031163394 0.026360845
0.006915047 -0.010115134 0.02075162 0.04176465 -0.008448153 0.05926937 -0.09203221 0.026062258
-0.030409785 0.055548534 0.0032051303 0.042370614 0.6812641 0.043244377 -0.039032567 0.057770383
-0.049987447 -0.017358946 -0.090155914 0.010426902 -0.04182484 -0.37213743 -0.0337424 -0.0331198
-0.106947884 -0.008002976 -0.03257113 -0.009460537 -0.05239999 0.031607553 0.007985309 0.056356657
-0.03708567 -0.0686336 -0.005395308 -0.060972735 0.008786982 -0.050522216 0.048805777 0.045138538
0.0430108 -0.04811832 -0.06433413 -0.06805292 -0.05480179 -0.058602113 -0.007607688 -0.02607191
0.20666896 -0.05773885 -0.042846385 -8.905077e-05 -0.0007842349 -0.0376837 -0.070943 -0.008258685
-0.03425999 0.080337755 -0.034383878 -0.021292219 -0.08436219 -0.03316564 -0.059879493 0.079052575
-0.04552297 0.008481065 0.017343504 -0.0054162974 0.01746135 -0.09490774 0.04774957 0.034002975
-0.1707254 0.008976698 -0.0026585367 -0.16897227 0.029078769 0.05456911 -0.1919535 0.026662672
0.015248648 -0.043379366 0.006425856 -0.03687987 -0.030686863 -0.089523986 0.021054054 -0.08600232
-0.04925098 0.038284067 0.048947718 0.05726894 0.027613763 0.16581336 -0.0031268615 0.06993396
0.063685715 0.06022719 0.036027074 -0.010642767 0.056105733 -0.017988909 -0.038633067 -0.009410092
-0.03504872 0.011150196 -0.0035382896 -0.0047676517 0.010610641 -0.18530528 -0.019107703 0.018569803
-0.04882051 -0.057791326 -0.0016550883 -0.06401348 0.004340888 0.16738768 -0.07913829 0.003329158

res_blocks.1.conv2.bias f4 [32]
00000000: c34a 9b3c 2875 1fbd f71a eb3b c3a6 353d
00000010: 779e 0cbd 173a 373d b555 34bd c81a 9b3d
00000020: 15ec fe3c 3707 833c 6b24 b43c 4e95 103c
00000030: 75c1 653c 9f15 0abd 3b24 0dbd 0406 81bc
00000040: 3f08 283d 14c1 5e3d 8280 2d3d 1573 143d
00000050: 797e f53c 0cc5 323d 06fb 75bc 72f1 fcbc
00000060: d028 28bd 3a7a afbc 49a5 c9bc 63b2 09bc
00000070: 56da a1bc c793 88bd 297d 8ebc 2a05 413d
0.018956548 -0.03893009 0.0071748453 0.04434849 -0.03433081 0.044733133 -0.04402705 0.075734675
0.031118432 0.015994651 0.021990022 0.0088246595 0.0140231745 -0.033712026 -0.03445838 -0.015749939
0.04102349 0.054383352 0.042358883 0.036242563 0.029967533 0.04364495 -0.015013462 -0.030876849
-0.041054547 -0.021420587 -0.024614947 -0.008404347 -0.019757431 -0.06668811 -0.017393665 0.047124065

res_blocks.1.bn2.weight f4 [32]
00000000: 8452 a13f 03e4 683f 2530 373f 00ba 933f
00000010: 7be2 2c3f 1619 8d3f 24d5 473f 4305 1f3f
00000020: 7eb8 5d3f a55d 883f fb01 a33f a24c 3a3f
00000030: 213b 733f d7ba 413f 0e0b 223f 088c d23e
00000040: f619 763f 2b5c 493f 0c73 383f ef8a 533f
00000050: 0c39 533f dfb4 683f f37d f93e 454d 343f
00000060: 6a1c 413f 331a 5e3f b0af 983f 2744 8d3f
00000070: e38d 9c3f 1f08 203f 20b9 2d3f 269d 773f
1.2603307 0.9097292 0.7155784 1.1541138 0.6753308 1.1023281 0.780596 0.62117404
0.8660964 1.0653578 1.2734979 0.7277318 0.950121 0.7567572 0.6329812 0.4112246
0.96133363 0.7865626 0.7205055 0.8263387 0.8250892 0.9090099 0.48728904 0.70430404
0.7543398 0.86758727 1.1928616 1.1036423 1.22308 0.6251239 0.67860603 0.96724164

res_blocks.1.bn2.bias f4 [32]
00000000: 04ba a1bf b157 ddbe d7c0 bfbe 0529 34bc
00000010: 1aae 4fbf f152 2ebf 2a5e 91be 77e4 acbe
00000020: 76a4 b9be 85e2 94be 97b5 b1bf 43ff 01bf
00000030: 76b7 14bf f4a4 31bf 93e5 d13e e902 64bd
00000040: eb2b 4fbe 677d 18bf f2e9 f83d d3e8 ebbe
00000050: 9f27 9abe 32ea afbe b4ac 10bf 7a45 0dbf
00000060: 7a38 92be b877 81bf 6d74 25bf b60c 6cbd
00000070: 2fa7 97be 26c4 323e 0ffe 85be 8b46 8ebe
-1.2634892 -0.43230966 -0.37451813 -0.010996108 -0.8112503 -0.6809531 -0.28392154 -0.33768055
-0.36258286 -0.2907907 -1.3883542 -0.50780123 -0.5809244 -0.69392323 0.40995464 -0.055666838
-0.20231597 -0.5956635 0.121539965 -0.46076068 -0.30108353 -0.34358364 -0.56513524 -0.5518414
-0.28558713 -1.011466 -0.64630777 -0.05762931 -0.29619738 0.17457637 -0.26170394 -0.27788195

res_blocks.1.bn2.running_mean f4 [32]
00000000: 129b d1be 2e30 833f 5576 2abe f8d7 26bf
00000010: bedc c23f 0455 ad3e 52df 6b3f 8500 14bf
00000020: ead8 5cbf 0c88 be3d 2207 5dbe fadc 913e
00000030: 78b1 473d 6a7b 9a3f 9bcc 0cbf 48e1 08be
00000040: 353c 96be 2588 9d3e 7050 4b3f 6712 003f
00000050: bb6e 88bf 3d47 0d3f 1603 1bbc bc76 053f
00000060: 9e00 303c f410 0a3e 3cfe 98be f85c d0bd
00000070: 7e61 243f 3e3b 80bf 3b3b c83f 4f51 b7bf
-0.40938622 1.0249078 -0.16646703 -0.6517329 1.5223615 0.33853924 0.92137635 -0.5781329
-0.86268485 0.09303293 -0.21584752 0.28488904 0.04875323 1.2068913 -0.54999703 -0.13367188
-0.2934281 0.30767933 0.7941961 0.5002808 -1.0658792 0.55186826 -0.009461185 0.521343
0.010742335 0.1348303 -0.29881465 -0.101739824 0.6421126 -1.0018079 1.5643076 -1.4321688
